Models/model11.tflite (tflite, 244624 bytes, 9 tensors)

sequential_1/conv1d_2/BiasAdd/ReadVariableOp f4 [64]
-0.00030882237 -0.00016526516 -0.010709935 0.007432868 0.03662191 -0.026888179 -0.0021430885 0.010471586
-0.013473963 0.037886314 -0.009327292 -0.0017342549 0.040435825 0.07901418 0.02552674 -0.016826471
0.015842803 0.05300354 -0.0022858973 0.00807983 -0.00645557 0.0026075474 -0.026134465 -0.0011407416
-0.0033810853 0.035192218 0.007543038 -0.007891404 0.014263874 -0.006100154 0.033831406 -0.009930678
-0.0043324376 0.010737027 0.026884506 0.03399294 -0.019378288 -0.003216671 0.019830659 0.0015084825
0.030752135 0.01898077 -0.0032498154 -0.000442873 0.05550899 0.022722352 0.01926952 -0.005139476
-0.0076906066 -0.022092504 -0.015892817 0.030890778 0.012961457 -0.0016519526 0.03683016 0.008388684
0.023964578 -0.015069281 -0.023843044 -0.003679771 0.055581667 0.040440094 0.038038626 0.0152825145
00000000: 70e9 a1b9 074b 2db9 b978 2fbc 6a8f f33b
00000010: db00 163d 9944 dcbc 0f73 0cbb 0491 2b3c
00000020: e6c1 5cbc ae2e 1b3d 80d1 18bc f04f e3ba
00000030: 09a0 253d 30d2 a13d 741d d13c abd7 89bc
00000040: c4c8 813c 3d1a 593d fece 15bb 4361 043c
00000050: 3f89 d3bb 63e3 2a3b f217 d6bc f084 95ba
00000060: 3395 5dbb b725 103d 972b f73b f34a 01bc
00000070: 06b3 693c cde3 c7bb cd92 0a3d 48b4 22bc
00000080: 1ff7 8dbb 5bea 2f3c e53c dc3c 2e3c 0b3d
00000090: 37bf 9ebc c9ce 52bb e873 a23c 46b8 c53a
000000a0: e7eb fb3c 8f7d 9b3c dbfa 54bb 6831 e8b9
000000b0: 655d 633d 3a24 ba3c 1ddb 9d3c 0d69 a8bb
000000c0: 7c01 fcbb 57fb b4bc a731 82bc a80e fd3c
000000d0: 4a5c 543c 5586 d8ba 39db 163d b170 093c
000000e0: 5d51 c43c 25e5 76bc 7d52 c3bc 5028 71bb
000000f0: 9aa9 633d 83a4 253d 64ce 1b3d 8363 7a3c

sequential_1/conv1d_3/BiasAdd/ReadVariableOp f4 [64]
-0.016267352 0.00013533862 0.038322534 0.0017404115 0.004742961 -0.010248385 0.0048787636 -0.014436954
0.031070711 -0.016284598 -0.006924945 -0.0005002006 -0.00021626212 -0.0017422809 0.036674935 -0.007642801
0.0077740224 -0.031121409 -0.0113378875 0.014604318 -0.0044761403 0.003910206 0.016402308 0.012571896
0.011553903 0.028723614 0.008254865 -0.020331282 0.00042207044 -0.0014113252 -0.0036789912 -0.0051739435
-0.013487745 0.04866617 0.07366396 -0.0023363044 -0.011151088 0.052310277 -0.014818181 -0.011628386
0.0053737536 0.03250615 0.063806474 -0.009880477 -0.009495591 0.042509634 0.031643517 0.022115791
0.044119008 -0.015640901 -0.014496696 0.02792695 0.0008700302 0.0021612323 -0.012847954 -0.021682322
0.026442904 -0.006343546 0.022769967 -0.004336838 -0.020160615 -0.018496038 0.08024084 -0.010014644
00000000: 1c43 85bc afe9 0d39 17f8 1c3d 851e e43a
00000010: d76a 9b3b d8e8 27bc 09de 9f3b f988 6cbc
00000020: 0188 fe3c 4767 85bc a6ea e2bb e51f 03ba
00000030: 6cc4 62b9 3f5d e4ba 7538 163d 7670 fabb
00000040: 3abd fe3b 53f2 febc 8cc2 39bc f346 6f3c
00000050: 96ac 92bb 2f21 803b 225e 863c 5bfa 4d3c
00000060: 954c 3d3c c94d eb3c 6a3f 073c ca8d a6bc
00000070: 5649 dd39 37fc b8ba 3b1b 71bb 2f8a a9bb
00000080: b4fb 5cbc 2e56 473d 21dd 963d af1c 19bb
00000090: 0eb3 36bc 4d43 563d f5c7 72bc fc84 3ebc
000000a0: 5016 b03b 2b25 053d f8ac 823d b9e1 21bc
000000b0: 6593 1bbc 951e 2e3d a29c 013d 2d2c b53c
000000c0: 22b6 343d 5921 80bc 8d83 6dbc 0fc7 e43c
000000d0: bd12 643a 76a3 0d3b 3a80 52bc 209f b1bc
000000e0: ca9e d83c 85dd cfbb 1588 ba3c 091c 8ebb
000000f0: e027 a5bc 0185 97bc 4f55 a43d 7614 24bc

sequential_1/conv1d_4/BiasAdd/ReadVariableOp f4 [128]
0.07533305 -0.0020208377 -0.005089742 -0.0018722167 0.02018592 0.07166149 0.044017777 0.04180382
-0.010710822 0.041968107 0.030097246 0.027097022 0.019915983 -0.0010150223 0.018720608 0.03989494
0.033648435 0.013541447 -0.013624889 -0.012670096 0.049703043 -0.005325695 -0.00022580943 0.017826509
0.020122865 -0.009579039 0.00011328691 0.0069543393 0.01310274 0.032044653 -0.0009876111 -0.015158082
-0.0041519324 -0.021159725 0.0019514393 -0.005962708 -0.0060357195 0.0173826 0.058476746 -0.015118778
0.05208375 -0.0004937961 -0.010556439 -0.0076093753 -0.0003188869 0.0012352631 -0.0050499435 9.8808916e-05
-0.008956519 -0.004381882 0.022617055 -0.011643466 -0.0029746864 0.028900975 -0.016851095 0.009276623
0.028404463 0.018900806 -0.012646499 -0.0033640303 0.006015198 -0.0018987141 -0.0154365115 0.003597242
-0.0071127773 -0.017221062 -0.0020902262 0.0151210725 0.037609044 -0.002516746 -0.006211886 0.007059649
0.018357005 0.074485 -0.009388566 0.005922034 0.04633048 -0.0002905104 -0.0151080545 0.07657389
0.0021995413 0.0041424856 0.018233737 0.0071240286 -0.0132468585 0.01673462 -0.012735295 0.0111932065
0.027161665 0.0018407062 0.008360481 -0.022550402 0.0020674095 -0.0005381035 -0.0023010562 0.0001780323
0.04827268 0.0084283715 0.004641514 0.027710749 -0.027994424 0.0020758298 0.0055942438 0.000403944
-0.00064961 -0.0029057884 0.07964557 0.02851724 0.03881581 -0.0019949016 0.0007621832 -0.011493342
-0.0110173905 0.0032412496 0.020179551 -0.011784333 -0.007819617 0.033880506 -0.0017903147 0.041432887
0.0011115746 0.03942108 -0.0027656404 0.02659012 0.015627738 0.03890515 0.03151128 0.005859099
00000000: 3748 9a3d 0870 04bb dac7 a6bb 2b65 f5ba
00000010: f15c a53c 42c3 923d fc4b 343d 7b3a 2b3d
00000020: 727c 2fbc c0e6 2b3d 808e f63c 93fa dd3c
00000030: d826 a33c 7f0a 85ba f65b 993c e068 233d
00000040: f1d2 093d f2dc 5d3c ed3a 5fbc 3c96 4fbc
00000050: 6b95 4b3d 2b83 aebb 42c7 6cb9 e608 923c
00000060: b5d8 a43c 67f1 1cbc 7294 ed38 3ae1 e33b
00000070: e0ac 563c 4141 033d bb72 81ba 9b59 78bc
00000080: ef0c 88bb 2957 adbc 70c7 ff3a d262 c3bb
00000090: 49c7 c5bb f465 8e3c 5085 6f3d c0b4 77bc
000000a0: c555 553d 1872 01ba eaf4 2cbc 1158 f9bb
000000b0: 4630 a7b9 8de8 a13a ff79 a5bb a237 cf38
000000c0: 5dbe 12bc e495 8fbb 6747 b93c 3cc4 3ebc
000000d0: f5f2 42bb bdc1 ec3c 4f0b 8abc fafc 173c
000000e0: 7ab0 e83c ddd5 9a3c 4333 4fbc 1077 5cbb
000000f0: 231b c53b 46de f8ba 6ce9 7cbc b5bf 6b3b
00000100: 4d12 e9bb 2f13 8dbc 2dfc 08bb 60be 773c
00000110: f10b 1a3d feef 24bb 148d cbbb a154 e73b
00000120: 6e61 963c 978b 983d 80d2 19bc 9f0d c23b
00000130: 08c5 3d3d a54f 98b9 c687 77bc c6d2 9c3d
00000140: 2e26 103b b0bd 873b eb5e 953c af70 e93b
00000150: 5a09 59bc 0b17 893c b3a7 50bc b663 373c
00000160: 2482 de3c da43 f13a 66fa 083c 9fbb b8bc
00000170: 607d 073b 840f 0dba 51cd 16bb 2eae 3a39
00000180: 93b9 453d 2717 0a3c d717 983b a701 e33c
00000190: 9054 e5bc a50a 083b eb4f b73b 72c8 d339
000001a0: 974a 2aba 0a6f 3ebb 371d a33d fd9c e93c
000001b0: 54fd 1e3d e5bc 02bb 40cd 473a 924e 3cbc
000001c0: 4982 34bc 256b 543b 964f a53c 1313 41bc
000001d0: da1d 00bc 49c6 0a3d fea8 eaba 88b5 293d
000001e0: 41b2 913a 0078 213d bf3f 35bb 86d3 d93c
000001f0: be05 803c 025b 1f3d f911 013d affd bf3b

sequential_1/conv1d_5/BiasAdd/ReadVariableOp f4 [128]
-0.012248998 0.03694976 -0.009164389 -0.01242292 0.011265373 -0.008108715 -0.014750627 -0.007793323
0.005193377 -0.0015213329 0.025591632 0.004309918 0.033641137 -0.012816686 0.025952892 -0.0046809823
-0.011597893 -0.006634413 0.04308039 0.021975175 -0.011762452 -0.0069165314 -0.015063276 0.028280905
0.043770235 0.01564008 -0.0036723157 0.0007305649 -0.009869498 0.0016834115 0.006622521 -0.003900427
0.025290493 0.053005844 0.02576018 0.018842809 -0.009953719 0.029987529 -0.008422948 0.03399428
-0.011005587 0.0008958846 -0.0105245095 0.034649465 -0.01135631 -0.017270504 -0.010123652 0.03776646
0.02713141 0.027433911 0.023255834 0.027561432 0.001700257 0.01148141 0.023942783 0.04437014
-0.0015498823 0.0049885595 0.033398766 -0.015428021 -7.922785e-05 0.00066886534 -0.003995654 -0.009684293
0.0481441 -0.008601004 0.00470484 -0.005551204 0.022274481 0.04493073 0.047112323 -0.0009899947
-0.011151515 -0.008511272 0.022988252 0.023837037 -0.010989402 -0.005282076 -0.005698494 0.03433862
-0.0031662204 -0.011694299 0.030648796 0.029725505 -0.0027507362 0.007396702 -0.0017922788 0.028775238
0.04085555 0.03950396 0.000113905786 -0.004902529 -0.0068187653 0.04832873 0.032081336 0.025597544
-0.006730766 -0.009205168 0.031758223 -0.003892589 -0.016000124 0.03061498 -0.0040879976 -0.0068513546
0.04543776 0.028668363 0.0062671816 0.019909987 -0.009556478 0.022844162 -0.005441882 0.036603887
-0.0035767613 0.042756815 0.02145789 0.060764946 0.032681365 0.0043559163 0.02854879 -0.003998166
0.01718967 0.035741005 -0.016280834 0.031275686 -0.00753281 0.0020180703 0.0033906803 0.024951773
00000000: 05b0 48bc a258 173d 3c26 16bc 8189 4bbc
00000010: 6692 383c 6ada 04bc 9dac 71bc 225f ffbb
00000020: 342d aa3b 7667 c7ba 8ba5 d13c 363a 8d3b
00000030: 4acb 093d 14fd 51bc 299b d43c ed62 99bb
00000040: 1705 3ebc 7d65 d9bb 1075 303d 4805 b43c
00000050: 4db7 40bc 12a4 e2bb f5cb 76bc 5bad e73c
00000060: 6b48 333d a01f 803c 3cab 70bb 6183 3f3a
00000070: adb3 21bc eba5 dc3a bc01 d93b 4e9e 7fbb
00000080: 022e cf3c a81c 593d 0307 d33c 3c5c 9a3c
00000090: ec14 23bc 68a8 f53c 6800 0abc 963d 0b3d
000000a0: c750 34bc ccd9 6a3a fe6e 2cbc 99ec 0d3d
000000b0: d10f 3abc df7a 8dbc addd 25bc 01b1 1a3d
000000c0: b142 de3c 15bd e03c 0583 be3c 83c8 e13c
000000d0: 28db de3a 861c 3c3c a823 c43c 77bd 353d
000000e0: 6c25 cbba 1277 a33b 25cd 083d cfc5 7cbc
000000f0: 2127 a6b8 cb56 2f3a faed 82bb deaa 1ebc
00000100: bf32 453d 3aeb 0cbc 0f2b 9a3b e0e6 b5bb
00000110: f978 b63c 4909 383d daf8 403d b6c2 81ba
00000120: d8b4 36bc dd72 0bbc dc51 bc3c e445 c33c
00000130: e50c 34bc 4415 adbb 6fba babb a7a6 0c3d
00000140: 5d80 4fbb 7299 3fbc 2f13 fb3c e782 f33c
00000150: b245 34bb 0960 f23b e6ea eaba 0cba eb3c
00000160: 2658 273d e8ce 213d b4e0 ee38 65a5 a0bb
00000170: f36f dfbb 59f4 453d b867 033d f1b1 d13c
00000180: c28d dcbb 46d1 16bc e914 023d ce1a 7fbb
00000190: b112 83bc 44cc fa3c 9cf4 85bb 5481 e0bb
000001a0: f21c 3a3d ead9 ea3c ee5c cd3b 451a a33c
000001b0: c692 1cbc ae23 bb3c d151 b2bb f5ed 153d
000001c0: 1968 6abb c521 2f3d 75c8 af3c aae4 783d
000001d0: e5dc 053d 13bc 8e3b 27df e93c 0c03 83bb
000001e0: 5ad1 8c3c 2965 123d 625f 85bc ef1a 003d
000001f0: cad5 f6bb 9a41 043b 2d36 5e3b a967 cc3c

sequential_1/conv1d_2/Conv1D f4 [64, 1, 2, 12]
0.15648754 0.14595231 0.052542936 -0.12723626 -0.02699853 -0.16262542 0.0056208125 -0.15275055
-0.09581265 0.03190374 -0.07329258 -0.0045984085 -0.056569215 0.090131834 0.0636002 -0.055682965
0.10072396 -0.17459154 0.07349206 -0.2232692 -0.10975329 -0.113827564 0.21172065 0.14902924
0.17420056 -0.10471375 0.17545517 0.11450154 -0.03667053 0.035823286 0.01288934 0.10308661
-0.010145897 0.038109608 -0.1616971 0.10648336 -0.101533435 -0.014060005 -0.17582346 -0.022808334
-0.20715958 0.036443125 0.2048891 0.062177557 0.10639153 -0.13244137 0.15313002 0.15789786
0.16887222 0.034604475 -0.16482462 -0.1684363 -0.15381601 0.104596145 -0.1357553 0.18979599
0.050501347 -0.082928225 -0.2006614 -0.06452961 0.1067936 0.09937269 -0.11783489 0.11213977
0.05635532 -0.18568465 0.12079047 0.17820488 -0.17563106 -0.07848475 -0.11383698 0.17820963
0.03481423 0.08968705 -0.07224603 -0.035061665 -0.120703645 -0.09584977 -0.17458828 0.070157684
-0.09497277 0.11887919 -0.09804865 0.09474403 0.10299379 0.11285936 0.030035164 0.076888606
-0.094859235 0.12828657 -0.07358652 -0.17361021 0.06021569 -0.04236264 -0.14571552 -0.036541335
0.07411544 0.028196327 -0.11487462 -0.08126525 0.09519658 0.19880936 0.1225114 0.12366565
-0.19370787 -0.036242664 0.22917277 0.08398308 -0.13686164 -0.20194857 -0.085259095 0.061817374
-0.013865669 -0.13797869 0.15524279 0.050116047 -0.12114278 -0.11202202 -0.098160826 0.07979186
-0.12511264 0.014852606 -0.076863386 -0.1413723 0.19376017 -0.08408472 0.09928301 -0.090676814
0.14874977 0.059175376 0.0719809 0.092604704 0.16365767 -0.033801567 0.09965338 -0.17919803
0.085342795 -0.011194275 -0.14758645 -0.21694534 -0.13867073 -0.11489078 -0.031479716 -0.012438433
0.083784476 -0.12973762 0.028017197 -0.0014913183 -0.11199572 -0.056941297 -0.048186608 0.19928823
-0.021771666 -0.028360475 -0.07591747 0.0119339395 -0.085775465 0.042530023 0.0011932136 -0.11029376
0.015077728 -0.1755986 0.02560584 -0.13810949 0.18422268 0.013668362 0.050998516 0.10862368
-0.18070804 -0.12964045 -0.14234965 0.03676568 0.102207094 -0.17157343 0.115727805 -0.11158739
-0.034156337 -0.11684588 -0.0038827409 0.094815254 -0.12599069 0.009199298 0.17672905 -0.14437824
0.120877974 0.058347505 0.17530133 -0.065204374 0.09433326 -0.07928707 0.124451056 0.095997095
0.0598019 -0.10866637 -0.031873584 -0.16447239 0.01899238 -0.023685552 0.13758829 -0.004192677
-0.041517653 0.13008066 0.10573012 -0.023294827 0.022869403 -0.07964389 0.098985136 0.019716423
0.08796779 0.0360895 0.019841705 0.09203507 -0.21699992 -0.105785444 0.069934525 -0.039193925
-0.12119309 -0.15772386 0.12676202 -0.026497647 -0.16445921 0.01042329 -0.21120775 0.15099822
-0.036363427 -0.07369832 0.04911291 -0.10789992 -0.17489342 -0.06570821 -0.14735563 -0.15035102
-0.11627881 -0.10493459 0.103360094 0.15624271 -0.09990319 0.16326153 0.06707264 -0.110254645
-0.17338271 0.18548036 -0.006413596 0.1810609 0.09703411 0.1466741 -0.05787004 0.06620761
-0.09902341 0.033408992 0.155871 -0.065743804 0.008266153 0.013711198 -0.10150451 -0.0010111463
00000000: 453e 203e 8674 153e 4337 573d 394a 02be
00000010: 052c ddbc 4787 26be cb2e b83b a46a 1cbe
00000020: 6c39 c4bd 7fad 023d 6c1a 96bd 3fae 96bb
00000030: 1fb5 67bd 0a97 b83d d240 823d d213 64bd
00000040: 5d48 ce3d 20c8 32be 0183 963d aea0 64be
00000050: 55c6 e0bd 6d1e e9bd 4ccd 583e 1f9b 183e
00000060: a261 323e 2a74 d6bd 85aa 333e c97f ea3d
00000070: d633 16bd 70bb 123d cf2d 533c 131f d33d
00000080: fa3a 26bc d218 1c3d ed93 25be f313 da3d
00000090: c3f0 cfbd ef5b 66bc 110b 34be 8bd8 babc
000000a0: a421 54be 6345 153d 73ce 513e e5ad 7e3d
000000b0: cde3 d93d b69e 07be 1ece 1c3e faaf 213e
000000c0: d7ec 2c3e 6cbd 0d3d c9c7 28be 917a 2cbe
000000d0: f281 1dbe 8136 d63d 7003 0bbe e159 423e
000000e0: 80da 4e3d 46d6 a9bd 2f7a 4dbe 1a28 84bd
000000f0: 9ab6 da3d e983 cb3d 6b53 f1bd 89a9 e53d
00000100: d6d4 663d 1e24 3ebe fe60 f73d 577b 363e
00000110: a1d8 33be 9dbc a0bd 5d23 e9bd 967c 363e
00000120: 5e99 0e3d d8ad b73d baf5 93bd d29c 0fbd
00000130: 7933 f7bd e24c c4bd 45c7 32be d5ae 8f3d
00000140: 1581 c2bd ef76 f33d bbcd c8bd 2809 c23d
00000150: 68ee d23d cf22 e73d 4e0c f63c c677 9d3d
00000160: 8f45 c2bd 8e5d 033e 88b4 96bd e0c6 31be
00000170: baa4 763d 7384 2dbd 7336 15be 5eac 15bd
00000180: d6c9 973d fcfb e63c 6343 ebbd 656e a6bd
00000190: 6df6 c23d ae94 4b3e 42e7 fa3d 6b44 fd3d
000001a0: 5b5b 46be 3073 14bd 44ac 6a3e 52ff ab3d
000001b0: 7525 0cbe 9bcb 4ebe 529c aebd 3734 7d3d
000001c0: d52c 63bc 494a 0dbe f7f7 1e3e 7c46 4d3d
000001d0: b519 f8bd cd6b e5bd 8b08 c9bd ea69 a33d
000001e0: 871d 00be 5858 733c 8d6a 9dbd e6c3 10be
000001f0: 1169 463e 9c34 acbd e454 cb3d c4b4 b9bd
00000200: dc51 183e e161 723d b96a 933d 89a7 bd3d
00000210: e095 273e 8373 0abd 1217 cc3d b07f 37be
00000220: 34c8 ae3d 3168 37bc e720 17be eb26 5ebe
00000230: b3ff 0dbe db4b ebbd e0f0 00bd 92ca 4bbc
00000240: 3297 ab3d f0d9 04be 5284 e53c 5778 c3ba
00000250: 035e e5bd 473b 69bd 525f 45bd 3712 4c3e
00000260: 7e5a b2bc 3a54 e8bc 9e7a 9bbd 9286 433c
00000270: 0cab afbd f633 2e3d 9b65 9c3a b2e1 e1bd
00000280: 9308 773c 1fd0 33be 57c3 d13c 936c 0dbe
00000290: dfa4 3c3e 44f1 5f3c d2e3 503d 1876 de3d
000002a0: 870b 39be 77c0 04be 1bc4 11be 9c97 163d
000002b0: f451 d13d f2b0 2fbe b302 ed3d ee87 e4bd
000002c0: 84e7 0bbd e54c efbd 9575 7ebb 802e c23d
000002d0: b403 01be a7b8 163c 76f8 343e e4d7 13be
000002e0: df8e f73d cbfd 6e3d 3182 333e df89 85bd
000002f0: cc31 c13d 4261 a2bd 32e0 fe3d 209a c43d
00000300: d6f2 743d 798c debd e08d 02bd 736b 28be
00000310: e895 9b3c 3408 c2bc f2e3 0c3e b962 89bb
00000320: 6a0e 2abd dd33 053e 0889 d83d cbd4 bebc
00000330: 9d58 bb3c 561c a3bd b8b8 ca3d 5684 a13c
00000340: 7528 b43d 95d2 133d 128b a23c e27c bc3d
00000350: 3a35 5ebe 0aa6 d8bd d539 8f3d cf89 20bd
00000360: 1534 f8bd 5d82 21be e7cd 013e 9811 d9bc
00000370: ff67 28be 72c6 2a3c d846 58be 479f 1a3e
00000380: d1f1 14bd 25ef 96bd 9e2a 493d a2fa dcbd
00000390: 4317 33be 0792 86bd 65e4 16be 9ef5 19be
000003a0: 9623 eebd f2e7 d6bd 75ae d33d 17fe 1f3e
000003b0: 0b9a ccbd 082e 273e 615d 893d 30cd e1bd
000003c0: 3d8b 31be 90ee 3d3e 2529 d2bb 0768 393e
000003d0: d2b9 c63d bc31 163e 2309 6dbd db97 873d
000003e0: c9cc cabd ded7 083d a69c 1f3e b0a4 86bd
000003f0: c26e 073c efa4 603c 99e1 cfbd 7188 84ba

sequential_1/conv1d_3/Conv1D f4 [64, 1, 2, 64]
0.00016862748 -0.012591939 -0.10065709 0.07059551 0.08341722 -0.10804396 0.0019269763 -0.047690608
-0.06425126 -0.05702541 -0.043913517 0.11186631 0.14593469 0.047660872 0.023728486 -0.07301572
0.033326395 0.13673624 0.10174732 0.14876193 0.07790561 0.04719424 -0.086007774 0.0029670605
-0.14804788 0.11981435 -0.13549715 -0.031275284 0.0915544 0.0312476 -0.105420135 0.069117785
0.004170876 0.13405038 0.12661794 0.14602181 -0.019133683 0.07448396 -0.06703449 -0.028811438
0.0698639 -0.094174884 0.064932875 0.09654431 0.02191183 -0.13033172 -0.056226928 -0.15228368
0.08009829 0.028382499 -0.00625139 0.071142584 -0.09797121 0.04638922 -0.13695933 0.089520566
-0.031683616 0.116322905 0.05682615 -0.031558175 -0.15113737 0.046279695 -0.14719123 -0.12785447
-0.116207086 -0.18309079 -0.0300509 -0.053817123 -0.041760724 0.14255957 -0.07201163 0.11429834
0.07240807 -0.09723139 -0.018479953 0.13371092 -0.007997878 0.030186655 0.032870438 0.038210854
0.09395474 0.10337607 -0.08782049 0.01230681 -0.021826759 0.07808933 0.11963374 0.03181399
0.09859259 -0.10356715 0.06688081 -0.06140214 0.11064643 -0.11311789 0.05292705 0.099761
-0.03716647 -0.08748664 0.049618643 -0.08980811 -0.00352786 0.14017911 -0.095150046 -0.003179734
0.0008618711 -0.010567733 0.03013157 -0.11741927 -0.1440638 -0.11290362 -0.0430199 0.10617257
-0.14206825 0.031516775 0.08097494 0.07202211 0.013733784 0.12130678 0.06566331 -0.02677998
0.13843742 0.11862094 0.06908298 0.14244834 -0.11409857 0.076498844 0.0032521866 -0.04789271
-0.09346033 0.08547025 0.09425807 -0.116908096 -0.05198027 -0.1330674 0.021792553 -0.07738122
0.10631733 0.016672945 0.038500067 -0.083274744 -0.1539963 -0.055719145 0.03987141 -0.12430497
-0.028843801 0.055703092 0.091270685 0.16156612 0.010812017 -0.125648 -0.019195473 0.010266801
-0.061023347 -0.11793802 -0.04849404 -0.06961426 -0.15294133 -0.017174905 -0.04759616 -0.05285116
0.1390179 -0.021971416 -0.15482847 0.13693711 -0.12403846 -0.019090664 0.092594944 -0.13419104
0.1274221 -0.012285515 -0.10887065 -0.15127696 0.14253113 0.020630058 -0.0668673 -0.097208075
-0.029855072 0.10620372 0.03256674 0.03426519 -0.13006747 -0.053740405 0.073031776 0.10921972
0.13537146 0.0808362 0.0768218 0.11099105 0.09039881 0.1312236 -0.1359853 -0.015084064
-0.0812052 0.14611648 -0.083457686 -0.048383694 -0.0818681 0.13790518 -0.006621554 0.11942657
-0.050351217 -0.002127527 -0.14035167 0.043897174 0.1116933 -0.05939914 -0.14174931 0.09816009
0.10073478 0.14177664 -0.02504218 0.013423984 0.118489705 0.07504274 -0.002148594 -0.1017868
-0.111719 -0.01302352 -0.11889281 0.10145689 -0.05535307 -0.04302171 0.124944046 -0.08226458
0.09423688 0.09478026 -0.009209704 0.05306014 0.09082779 0.035525706 0.09153439 -0.07765609
0.010014863 -0.09171115 0.13956739 -0.004406121 -0.10852031 0.05256174 0.10874514 -0.013296827
0.100088365 -0.13542253 0.042655587 -0.053947262 -0.04594844 -0.09743642 0.04135994 0.1163095
0.0011907261 0.098942034 0.12911245 -0.1345072 -0.061741237 -0.12618631 -0.10897885 0.005642057
00000000: 98d1 3039 6c4e 4ebc 4e25 cebd 6194 903d
00000010: a6d6 aa3d 2746 ddbd 9892 fc3a 3a57 43bd
00000020: 2a96 83bd 7a93 69bd a9de 33bd 2a1a e53d
00000030: e76f 153e 0c38 433d 3e62 c23c 4489 95bd
00000040: 4281 083d 9604 0c3e e660 d03d 0c55 183e
00000050: fa8c 9f3d bf4e 413d d824 b0bd 0473 423b
00000060: dd99 17be 3a61 f53d c4bf 0abe 831a 00bd
00000070: e080 bb3d f8fa ff3c 83e6 d7bd a08d 8d3d
00000080: d8ab 883b 8144 093e 22a8 013e be86 153e
00000090: 3ebe 9cbc 0c8b 983d 6149 89bd f705 ecbc
000000a0: ce14 8f3d c3de c0bd 87fb 843d 06b9 c53d
000000b0: 7080 b33c ae75 05be 354e 66bd 41f0 1bbe
000000c0: 930a a43d 6a82 e83c 76d8 ccbb 34b3 913d
000000d0: 21a5 c8bd 9f02 3e3d 113f 0cbe 8f56 b73d
000000e0: aec6 01bd b43a ee3d 89c2 683d 2543 01bd
000000f0: c1c3 1abe c78f 3d3d 4cb9 16be 48ec 02be
00000100: fbfd edbd 277c 3bbe 4e2d f6bc 586f 5cbd
00000110: 4b0d 2bbd 23fb 113e d57a 93bd 4015 ea3d
00000120: af4a 943d 4021 c7bd 4563 97bc 84eb 083e
00000130: 8809 03bc 014a f73c 27a3 063d fc82 1c3d
00000140: 586b c03d d5b6 d33d 3bdb b3bd 81a2 493c
00000150: 08ce b2bc 4ced 9f3d 8902 f53d 634f 023d
00000160: e9ea c93d 041b d4bd cef8 883d cf80 7bbd
00000170: 989a e23d 5aaa e7bd 09ca 583d 7f4f cc3d
00000180: de3b 18bd 322c b3bd eb3c 4b3d 50ed b7bd
00000190: ab33 67bb 1d8b 0f3e 07de c2bd 1663 50bb
000001a0: 31ef 613a 4924 2dbc 7bd6 f63c 8479 f0bd
000001b0: 7685 13be 033a e7bd a235 30bd 0171 d93d
000001c0: 577a 11be bc17 013d 30d6 a53d 5480 933d
000001d0: aa03 613c b06f f83d 7c7a 863d b061 dbbc
000001e0: 8ac2 0d3e 89ef f23d 617b 8d3d fadd 113e
000001f0: 83ac e9bd 6dab 9c3d a322 553b 252b 44bd
00000200: 2168 bfbd 070b af3d 600a c13d 836d efbd
00000210: 43e9 54bd d242 08be 4c86 b23c 0c7a 9ebd
00000220: e6bc d93d b395 883c 3fb2 1d3d f38b aabd
00000230: 35b1 1dbe c239 64bd 3450 233d 9b93 febd
00000240: d649 ecbc ed28 643d 20ec ba3d 9771 253e
00000250: e324 313c dfa9 00be d33f 9dbc 1636 283c
00000260: 9ef3 79bd 7d89 f1bd b0a1 46bd ec91 8ebd
00000270: a79c 1cbe 63b2 8cbc 31f4 42bd 757a 58bd
00000280: b55a 0e3e 66fd b3bc 5b8b 1ebe 3e39 0c3e
00000290: e007 febd 0664 9cbc 6ba2 bd3d 6069 09be
000002a0: f07a 023e 2f49 49bc 93f7 debd 59e8 1abe
000002b0: aef3 113e 5e00 a93c b9f1 88bd 0715 c7bd
000002c0: a092 f4bc 5681 d93d b464 053d a859 0c3d
000002d0: 6830 05be e61e 5cbd af91 953d 97ae df3d
000002e0: d19e 0a3e 738d a53d bf54 9d3d 474f e33d
000002f0: 0323 b93d 7b5f 063e bb3f 0bbe 2623 77bc
00000300: e94e a6bd 8f9f 153e ddeb aabd fb2d 46bd
00000310: 76aa a7bd 0437 0d3e 9ff9 d8bb eb95 f43d
00000320: 143d 4ebd fb6d 0bbb 59b8 0fbe 86cd 333d
00000330: 75bf e43d 834c 73bd bb26 11be 2808 c93d
00000340: 094e ce3d e52d 113e 4225 cdbc 45f0 5b3c
00000350: bbaa f23d 02b0 993d 6dcf 0cbb 9975 d0bd
00000360: eecc e4bd 9a60 55bc 137e f3bd a1c8 cf3d
00000370: e7b9 62bd 8837 30bd aae2 ff3d 557a a8bd
00000380: 44ff c03d 271c c23d 4ce4 16bc 9755 593d
00000390: ec03 ba3d 6783 113d 6276 bb3d 280a 9fbd
000003a0: 6115 243c 0ed3 bbbd c1ea 0e3e 3961 90bb
000003b0: e53f debd fb4a 573d c6b5 de3d efda 59bc
000003c0: 21fb cc3d 34ac 0abe a0b7 2e3d cef7 5cbd
000003d0: 6e34 3cbd bf8c c7bd 0a69 293d ad33 ee3d
000003e0: 2312 9c3a 1fa2 ca3d 0e36 043e 41bc 09be
000003f0: 61e4 7cbd fc36 01be 4e30 dfbd 01e1 b83b

sequential_1/conv1d_4/Conv1D f4 [128, 1, 2, 64]
0.011344734 -0.06363801 0.07449144 -0.1026945 -0.13225111 0.1483852 -0.05337649 -0.028988982
0.009876334 0.0817538 -0.0006700411 0.04463402 -0.14934045 0.09413799 0.027996637 -0.08558769
0.008218604 0.15763886 0.09224684 -0.09718514 0.10687569 0.02392948 0.055487715 0.019196484
0.005486584 -0.10788661 0.14043097 0.11224571 0.111592375 0.0130540775 -0.11150328 -0.021988403
-0.04780793 0.042971548 0.13153057 0.04236482 -0.08999092 -0.05339954 -0.067344934 0.08945858
0.009843162 0.058968402 0.12039373 0.03330347 0.020208104 -0.02280669 -0.06220829 -0.07875014
0.008189433 -0.091237694 0.036684714 -0.072306275 -0.008271784 0.023605654 -0.069719926 -0.05846748
0.1375923 -0.048689686 0.116049275 -0.004278331 -0.12748 -0.083108 -0.09568043 -0.055519696
0.12020361 -0.026843395 0.111972 -0.03567693 0.07190354 0.02644702 0.039241914 -0.08150239
-0.054603066 -0.048129708 0.13036162 -0.08215085 -0.1164684 -0.080855995 0.035189416 0.13234183
0.050127663 -0.082961105 0.026735593 -0.051476143 0.087471105 -0.0589336 -0.05219453 -0.023162395
-0.1122333 -0.010629819 0.11877411 -0.029295858 0.05156493 0.007072381 -0.075346254 0.050595615
-0.0012983842 -0.099488504 0.1144173 -0.041040957 -0.02167678 -0.037928283 -0.04735451 -0.07115781
-0.066378735 -0.099079825 0.009358963 0.067605816 -0.028875567 0.083459385 -0.059908547 0.052082296
-0.11986501 0.12427253 -0.13149291 0.0066931667 0.099071845 -0.096625194 -0.11081697 0.0474368
0.12325372 -0.029067786 0.061456237 -0.06693687 -0.00034391435 -0.08999312 0.0751551 -0.039270427
-0.12574229 -0.008786314 0.10044287 -0.029181859 0.107403845 0.107756235 0.110341206 0.050091267
1.0004214e-05 0.11379213 0.018551594 -0.020678716 -0.07936036 -0.0019659093 -0.09911481 0.050913546
0.056688134 -0.010609601 -0.07410666 -0.009975354 -0.10391742 -0.0448952 -0.089148514 -0.05196312
-0.024868554 -0.0009564528 0.08229324 -0.11756149 0.038552813 -0.014055271 -0.1216224 0.061627895
-0.06347746 -0.022209775 -0.026959592 0.035826713 0.04897234 -0.06288644 0.03184724 -0.0066810613
0.09866534 0.04720134 -0.11732099 0.070345104 0.17223355 -0.0908372 0.036554094 -0.043809738
-0.03788119 -0.09599611 0.0067993226 0.103920795 0.05803392 -0.10846183 0.066585846 0.02765933
-0.04611406 0.09534142 0.02390148 0.051076587 0.03608472 0.098097436 0.059402738 0.019147228
-0.105480656 0.10564183 -0.056575093 -0.10602679 0.08270303 -0.09725731 0.07608438 -0.0960007
0.06288143 -0.05406247 -0.045544095 -0.03789547 0.10649205 0.09288096 0.11881613 0.0012163686
0.08504559 -0.1437141 0.024576573 0.020720657 0.008063182 -0.022258963 0.04043592 0.06902956
-0.042026117 -0.12123454 0.109151706 -0.08034403 -0.17037086 -0.01933019 0.117671385 0.0997997
0.032885235 -0.122316465 -0.10533175 0.11476516 0.056896247 -0.055640873 -0.03304732 0.09401199
0.062736005 0.023201477 0.03094714 0.01266131 0.052680854 -0.12312381 0.0037333602 -0.042660013
-0.0907517 0.03276703 -0.10178863 0.058920477 0.036304858 0.05319378 -0.028931148 -0.10915467
-0.018974463 -0.060627744 0.12015743 -0.037516966 0.00590321 0.1019846 -0.010539107 -0.008083195
00000000: 43df 393c a554 82bd f88e 983d 7e51 d2bd
00000010: d66c 07be 4af2 173e 4ea1 5abd 4d7a edbc
00000020: 59d0 213c 896e a73d b2a5 2fba 2ad2 363d
00000030: b4ec 18be 6bcb c03d 3459 e53c 9948 afbd
00000040: 53a7 063c 156c 213e e9eb bc3d 0109 c7bd
00000050: a4e1 da3d c207 c43c 1647 633d f241 9d3c
00000060: cdc8 b33b a8f3 dcbd 23cd 0f3e 14e1 e53d
00000070: 8b8a e43d c5e0 553c d55b e4bd 0621 b4bc
00000080: 3fd2 43bd ef02 303d f3af 063e bc86 2d3d
00000090: 294d b8bd 7ab9 5abd 24ec 89bd 0f36 b73d
000000a0: 3745 213c da88 713d fd90 f63d 3869 083d
000000b0: 778b a53c 18d5 babc 1fce 7ebd c147 a1bd
000000c0: f92c 063c d4da babd b642 163d 5015 94bd
000000d0: 6086 07bc a560 c13c 52c9 8ebd 997b 6fbd
000000e0: ffe4 0c3e d66e 47bd 3eab ed3d 3e31 8cbb
000000f0: 1e8a 02be 8734 aabd 1af4 c3bd 9f68 63bd
00000100: 4f2d f63d aee6 dbbc 9351 e53d f921 12bd
00000110: 2a42 933d 6ca7 d83c 21bc 203d baea a6bd
00000120: 77a7 5fbd a823 45bd 847d 053e b43e a8bd
00000130: fc86 eebd d497 a5bd c722 103d 9e84 073e
00000140: aa52 4d3d 83e7 a9bd 9a04 db3c a6d8 52bd
00000150: 0d24 b33d 5c64 71bd eec9 55bd 10bf bdbc
00000160: 93da e5bd b128 2ebc d73f f33d defd efbc
00000170: bf35 533d 6fbf e73b 234f 9abd 593d 4f3d
00000180: 8b2e aaba a1c0 cbbd 9e53 ea3d 901a 28bd
00000190: 8193 b1bc b05a 1bbd cdf6 41bd 30bb 91bd
000001a0: 93f1 87bd 5dea cabd 5656 193c eb74 8a3d
000001b0: 748c ecbc c1ec aa3d aa62 75bd 3f54 553d
000001c0: c97b f5bd 9982 fe3d 14a6 06be 5a52 db3b
000001d0: 2ee6 ca3d 6ee3 c5bd 02f4 e2bd 174d 423d
000001e0: 726c fc3d 911f eebc 89b9 7b3d 3316 89bd
000001f0: 674f b4b9 504e b8bd ebea 993d 07da 20bd
00000200: 96c2 00be 79f4 0fbc feb4 cd3d cb0e efbc
00000210: 8cf6 db3d 4daf dc3d 92fa e13d 802c 4d3d
00000220: c6d7 2737 d90b e93d 83f9 973c 6966 a9bc
00000230: af87 a2bd 7cd6 00bb b5fc cabd b98a 503d
00000240: d131 683d e4d3 2dbc 3cc5 97bd ab6f 23bc
00000250: a8d2 d4bd 07e4 37bd 7f93 b6bd 48d7 54bd
00000260: 23b9 cbbc 76ba 7aba 5c89 a83d 14c4 f0bd
00000270: 8ee9 1d3d 1448 66bc 2a15 f9bd 886d 7c3d
00000280: 7800 82bd 46f1 b5bc 5dda dcbc 08bf 123d
00000290: 3897 483d 9bca 80bd 4072 023d ceec dabb
000002a0: 0e11 ca3d 3156 413d fd45 f0bd 1811 903d
000002b0: fe5d 303e db08 babd bfb9 153d d771 33bd
000002c0: 4f29 1bbd 9c99 c4bd dacc de3b 6dd4 d43d
000002d0: fab4 6d3d 3c21 debd 295e 883d d295 e23c
000002e0: 19e2 3cbd 5d42 c33d 09cd c33c af35 513d
000002f0: 92cd 133d 4fe7 c83d 4950 733d a6da 9c3c
00000300: 3e06 d8bd be5a d83d 49bb 67bd 9324 d9bd
00000310: 3560 a93d d72e c7bd 21d2 9b3d 049c c4bd
00000320: fbc7 803d 9c70 5dbd 728c 3abd 4838 1bbd
00000330: 8118 da3d 5f38 be3d df55 f33d 8f6e 9f3a
00000340: 622c ae3d ca29 13be cf54 c93c 5ebe a93c
00000350: 701b 043c 6e58 b6bc 23a0 253d 5f5f 8d3d
00000360: 9423 2cbd d149 f8bd ee8a df3d 698b a4bd
00000370: b375 2ebe 595a 9ebc b2fd f03d c963 cc3d
00000380: abb2 063d 0e81 fabd 2cb8 d7bd ff09 eb3d
00000390: 0a0c 693d afe7 63bd a05c 07bd 5c89 c03d
000003a0: bc7b 803d 0611 be3c db84 fd3c 6271 4f3c
000003b0: e1c7 573d 5628 fcbd 64ab 743b 44bc 2ebd
000003c0: 07dc b9bd b936 063d 8f76 d0bd 9956 713d
000003d0: 67b4 143d b9e1 593d 0401 edbc 7c8c dfbd
000003e0: 5570 9bbc cc54 78bd 1915 f63d 64ab 19bd
000003f0: b76f c13b 4ddd d03d 38ac 2cbc 616f 04bc

sequential_1/conv1d_5/Conv1D f4 [128, 1, 2, 128]
-0.009858374 -0.05066352 -0.04021712 0.05115712 -0.042228956 0.07658143 0.05117053 -0.07987174
-0.07639164 -0.01905 -0.03902926 -0.07932114 -0.094078206 0.0143702 0.010759232 -0.07079683
0.05369415 -0.013203727 -0.08500272 -0.05903058 -0.020158002 -0.091572486 -0.032388497 -0.106772825
0.05996691 0.014879475 -0.07528633 0.009023012 0.03658723 0.03708666 -0.063072264 -0.103940584
-0.12818162 -0.08839409 -0.074257016 0.098545976 -0.07877132 0.0290399 -0.018653499 -0.022751106
-0.081545405 0.08458711 0.07925803 -0.036072522 0.087224014 -0.053976372 0.05137559 -0.08222614
0.029673971 0.0703789 0.006565498 -0.019244011 -0.022290137 -0.028333832 0.061385415 0.06444178
0.04282291 -0.06435483 0.07086046 0.106544 -0.013792171 -0.019277852 -0.0938755 -0.014431542
0.04113792 0.11310859 0.01110171 0.044130877 0.038451497 -2.3192155e-05 -0.098620035 0.015667517
-0.02957166 -0.02499259 -0.085892774 0.084107265 -0.00047093126 0.07875767 -0.04569462 -0.008172354
0.023252882 0.07921316 -0.08104599 -0.10635651 0.027191045 0.067099534 0.08643146 -0.019398276
-0.008421507 0.018169738 0.10356442 -0.051132318 0.02879767 -0.062378135 -0.002172248 0.011460503
0.05376908 -0.07258738 -0.05736938 0.081047945 0.09818116 -0.028059084 0.108508654 -0.0777671
-0.02877281 0.098815545 -0.09263637 0.041576367 -0.03771282 -0.047830816 -0.028497398 -0.0717902
0.010675106 0.022327267 -0.097654454 0.04268301 0.039642636 -0.044723786 -0.075725846 0.037818745
0.087980054 -0.12113329 -0.0049699936 0.09519239 -0.0073934486 0.013477766 -0.075689256 0.08509167
0.034618407 0.045757413 -0.030055685 0.031898573 -0.053930037 0.055634383 -0.05084864 0.008066859
0.0065029 0.06867046 -0.04674578 -0.04964626 0.025276033 0.04131026 -0.05420382 -0.029282661
-0.0971789 -0.07159203 0.049991485 -0.08677857 0.05268221 0.020357488 -0.10184792 0.03310973
-0.06912606 0.075030975 0.068245105 0.067168474 0.0808309 -0.0855634 -0.08833634 -0.063472696
0.018213665 0.038962048 -0.09899011 0.04377315 0.033650883 -0.039580062 0.009705468 -0.060406312
0.010507624 -0.068956375 0.07745027 -0.009021624 -0.090569034 0.05576414 0.04710477 0.07435781
-0.06179391 0.08345709 0.09293489 -0.029223794 0.10502253 0.07724419 0.020970162 0.02045365
-0.089587584 0.061253957 0.0973739 0.11767115 -0.08130371 -0.11702699 -0.107740395 0.04804258
-0.08567628 -0.0936154 0.11597362 0.029567333 0.032008324 0.0892942 0.056947127 0.04695643
0.06309719 -0.072109886 0.051257227 -0.043326963 0.073947966 -0.10557138 0.028474117 -0.04669115
0.028112756 -0.054478653 0.0732948 0.08674553 0.08514925 0.020723555 -0.09143201 -0.094996415
0.050031945 0.092047736 0.035354994 -0.051296286 -0.05797593 0.060721274 0.0061028823 0.09293305
-0.033241738 -0.024220059 -0.036997344 -0.012783433 0.021344334 -0.11885857 -0.07670834 0.09740615
0.050685134 -0.032793958 0.0057232915 -0.04667609 0.03866189 0.11097233 0.013470274 0.109651096
0.0033536449 0.028637785 0.032987878 0.051348068 -0.0056298655 0.08939734 -0.087738715 0.03311241
0.01267155 -0.017657014 0.084396265 0.02287103 0.082506515 0.034469023 -0.08719002 0.05566278
00000000: 0485 21bc 8d84 4fbd b5ba 24bd 218a 513d
00000010: 45f8 2cbd bad6 9c3d 3198 513d cb93 a3bd
00000020: 3873 9cbd bf0e 9cbc 25dd 1fbd 1f73 a2bd
00000030: 13ac c0bd fd70 6b3c 7d47 303c eefd 90bd
00000040: 66ee 5b3d 7254 58bc e815 aebd 0dca 71bd
00000050: 6522 a5bc 5b8a bbbd cda9 04bd b6ab dabd
00000060: dd9f 753d 0bc9 733c b82f 9abd 41d5 133c
00000070: 7edc 153d 2ee8 173d 082c 81bd cdde d4bd
00000080: 0b42 03be f607 b5bd 1014 98bd 79d2 c93d
00000090: dc52 a1bd 16e5 ed3c 39cf 98bc 8760 babc
000000a0: 4701 a7bd 023c ad3d 0952 a23d c8c0 13bd
000000b0: 81a2 b23d 5416 5dbd 366f 523d 2e66 a8bd
000000c0: d416 f33c d022 903d 6423 d73b 9ea5 9dbc
000000d0: ce99 b6bc 5a1c e8bc 466f 7b3d 0dfa 833d
000000e0: 1367 2f3d 77cc 83bd 4a1f 913d be33 da3d
000000f0: 8ff8 61bc 96ec 9dbc cc41 c0bd 4672 6cbc
00000100: 3c80 283d 7aa5 e73d f2e3 353c 94c2 343d
00000110: 517f 1d3d c68c c2b7 4df9 c9bd 2a59 803c
00000120: 4440 f2bc 43bd ccbc 8de8 afbd 6e40 ac3d
00000130: 53e7 f6b9 b44b a13d 482a 3bbd 56e5 05bc
00000140: d47c be3c 823a a23d 71fb a5bd 71d1 d9bd
00000150: c1bf de3c 7b6b 893d fa02 b13d 22e9 9ebc
00000160: 5cfa 09bc b4d8 943c 9519 d43d 1f70 51bd
00000170: 17e9 eb3c 3780 7fbd 465c 0ebb d5c4 3b3c
00000180: f83c 5c3d b1a8 94bd 28fc 6abd 77fc a53d
00000190: 3413 c93d 2adc e5bc c939 de3d 5b44 9fbd
000001a0: f5b4 ebbc ce5f ca3d 23b8 bdbd fb4b 2a3d
000001b0: c278 1abd 3fea 43bd 6073 e9bc be06 93bd
000001c0: a4e6 2e3c ace7 b63c 0fff c7bd 61d4 2e3d
000001d0: 5160 223d 4a30 37bd 2716 9bbd d4e7 1a3d
000001e0: e32e b43d bb14 f8bd 54db a2bb 3af4 c23d
000001f0: be44 f2bb d9d1 5c3c f802 9bbd 8b44 ae3d
00000200: 08cc 0d3d 206c 3b3d 5737 f6bc 14a8 023d
00000210: bee5 5cbd e1e0 633d aa46 50bd dc2a 043c
00000220: 4716 d53b 19a3 8c3d 8178 3fbd e059 4bbd
00000230: af0f cf3c f234 293d d304 5ebd 31e2 efbc
00000240: bb05 c7bd d89e 92bd dfc3 4c3d f7b8 b1bd
00000250: 4dc9 573d bfc4 a63c a495 d0bd 119e 073d
00000260: f791 8dbd d7a9 993d 17c4 8b3d a08f 893d
00000270: ac8a a53d dd3b afbd afe9 b4bd f9fd 81bd
00000280: d334 953c ab96 1f3d 54bb cabd 794b 333d
00000290: 82d5 093d b41e 22bd af03 1f3c 9c6c 77bd
000002a0: 2b28 2c3c 0039 8dbd 3f9e 9e3d 6fcf 13bc
000002b0: 427c b9bd f068 643d eef0 403d e848 983d
000002c0: 9c1b 7dbd 8deb aa3d a654 be3d bd66 efbc
000002d0: 0d16 d73d 3432 9e3d 9ec9 ab3c 6a8e a73c
000002e0: b279 b7bd 6ee5 7a3d f86b c73d 92fd f03d
000002f0: 8f82 a6bd d9ab efbd ffa6 dcbd 4cc8 443d
00000300: 0c77 afbd 6eb9 bfbd 9483 ed3d 3137 f23c
00000310: 291b 033d e1df b63d 6441 693d 6355 403d
00000320: 1939 813d 59ae 93bd 19f3 513d 9d77 31bd
00000330: 0872 973d cf35 d8bd 8d42 e93c 383f 3fbd
00000340: b94c e63c 0225 5fbd 961b 963d a4a7 b13d
00000350: bb62 ae3d 72c4 a93c b540 bbbd 7b8d c2bd
00000360: 4cee 4c3d 8683 bc3d 66d0 103d 0e1c 52bd
00000370: 2b78 6dbd dfb6 783d b0fa c73b af53 be3d
00000380: 7d28 08bd 2569 c6bc 878a 17bd 9b71 51bc
00000390: 50da ae3c 1f6c f3bd 4319 9dbd e07c c73d
000003a0: 379b 4f3d f552 06bd 738a bb3b 6e2f 3fbd
000003b0: ee5b 1e3d 7645 e33d 6db2 5c3c c190 e03d
000003c0: d3c8 5b3b ca99 ea3c 4c1e 073d 5a52 523d
000003d0: bc7a b8bb f415 b73d 5bb0 b3bd e1a0 073d
000003e0: 559c 4f3c 71a5 90bc f3d7 ac3d 075c bb3c
000003f0: 2df9 a83d 642f 0d3d ae90 b2bd a8fe 633d

sequential_1/dense_2/MatMul f4 [1, 128]
0.12368602 -0.10288379 0.049994078 0.21726333 0.16140485 0.170228 0.016135503 0.019090373
0.16528144 0.22888725 -0.10606909 0.221524 -0.24119417 0.145247 -0.22154342 0.1368076
0.070242666 0.22787467 -0.20172498 -0.093929395 0.18111145 0.11541369 0.14952658 -0.12540542
-0.18567738 -0.014814101 0.16381833 -0.20397013 0.04174395 0.20501204 0.18334006 0.25059465
-0.021394823 -0.25686157 -0.22895142 -0.076430224 0.17786287 -0.08331279 0.10828208 -0.06848201
0.14831634 -0.16640426 0.121411234 -0.13514376 0.22424652 0.010809072 0.14478707 -0.21321824
-0.11729938 -0.10872722 -0.14090379 -0.028457137 -0.19280457 0.119717255 -0.06724497 -0.061664544
0.20049836 0.12837876 -0.23997895 0.19552118 0.101139404 0.18034424 0.0556382 0.09114311
-0.23619297 0.02046307 0.04276683 0.19803508 -0.11368111 -0.1833227 -0.20912966 0.09537029
0.21784474 0.10183593 -0.21120036 -0.13173613 0.20472008 0.23980178 0.1366746 -0.091044664
0.2079659 0.123575926 -0.22419737 -0.0752447 0.16631822 -0.22543626 0.18989865 -0.060716253
-0.10683105 -0.12702624 -0.2255613 0.08664442 0.10180072 -0.13967581 -0.14197524 -0.12734884
0.13665834 0.059335392 -0.18315628 0.09377469 0.019314375 -0.14826615 0.0542309 0.03094264
-0.22188401 -0.067870796 -0.09939809 -0.15809548 0.231742 -0.1654887 0.025397833 -0.1659574
0.23209256 -0.24098457 -0.12158132 -0.08518841 -0.17911504 -0.16287665 -0.08618556 0.0499486
-0.16391748 -0.13421707 0.14206426 -0.06250999 0.055816226 0.14971533 -0.07221325 -0.0931707
00000000: 194f fd3d bdb4 d2bd 97c6 4c3d 477a 5e3e
00000010: 5047 253e 4050 2e3e 9a2e 843c 6a63 9c3c
00000020: 8a3f 293e 6b61 6a3e c03a d9bd 30d7 623e
00000030: 9bfb 76be a1bb 143e 47dc 62be 4b17 0c3e
00000040: 63db 8f3d fa57 693e fe90 4ebe 0e5e c0bd
00000050: 4875 393e 035e ec3d 7f1d 193e 476a 00be
00000060: 3622 3ebe d8b6 72bc febf 273e 8cdd 50be
00000070: b4fb 2a3d adee 513e 7fbd 3b3e f14d 803e
00000080: 3244 afbc 5c83 83be 3e72 6abe 7387 9cbd
00000090: af21 363e e59f aabd ffc2 dd3d 4c40 8cbd
000000a0: 3de0 173e e165 2abe 74a6 f83d 2063 0abe
000000b0: e1a0 653e 8918 313c 1043 143e e255 5abe
000000c0: a83a f0bd 60ac debd 1549 10be f11e e9bc
000000d0: 906e 45be 522e f53d bbb7 89bd f693 7cbd
000000e0: 714f 4d3e b975 033e 0bbd 75be b436 483e
000000f0: 2d22 cf3d 29ac 383e e2e4 633d 3da9 ba3d
00000100: 92dc 71be 2ba2 a73c 462c 2f3d b5c9 4a3e
00000110: a4d1 e8bd f2b8 3bbe 1626 56be 8051 c33d
00000120: b112 5f3e 5b8f d03d e844 58be d6e5 06be
00000130: 24a2 513e 998e 753e 6df4 0b3e a075 babd
00000140: 03f5 543e 6015 fd3d ff93 65be e519 9abd
00000150: 534f 2a3e c3d8 66be cb74 423e 9bb1 78bd
00000160: 3dca dabd 2b13 02be 8bf9 66be a172 b13d
00000170: e57c d03d 2d07 0fbe f561 11be bc67 02be
00000180: 2af0 0b3e ab09 733d 528d 3bbe f20c c03d
00000190: 2e39 9e3c 15d3 17be 3821 5e3d 6b7b fd3c
000001a0: 9035 63be d8ff 8abd 3a91 cbbd c8e3 21be
000001b0: c64d 6d3e df75 29be 1e0f d03c bdf0 29be
000001c0: aca9 6d3e a9c4 76be a1ff f8bd 4377 aebd
000001d0: ef69 37be 23c9 26be 0e82 b0bd e796 4c3d
000001e0: fcd9 27be 3370 09be 4b79 113e 3d05 80bd
000001f0: 8e9f 643d fa4e 193e 8ae4 93bd 48d0 bebd
